{
  "class_name": "Sequential",
  "config": {
    "name": "sequential_16",
    "layers": [
      {
        "class_name": "InputLayer",
        "config": {
          "batch_input_shape": [
            null,
            32
          ],
          "dtype": "float32",
          "sparse": false,
          "ragged": false,
          "name": "dense_47_input"
        }
      },
      {
        "class_name": "Dense",
        "config": {
          "name": "dense_47",
          "trainable": true,
          "dtype": "float32",
          "units": 64,
          "activation": "relu",
          "use_bias": true,
          "kernel_initializer": {
            "class_name": "GlorotUniform",
            "config": {
              "seed": null
            }
          },
          "bias_initializer": {
            "class_name": "Zeros",
            "config": {}
          },
          "kernel_regularizer": null,
          "bias_regularizer": null,
          "activity_regularizer": null,
          "kernel_constraint": null,
          "bias_constraint": null
        },
        "weights": [
          [
            … "bias": [
          … "class_name": "Dense",
        "config": {
          "name": "dense_48",
          "trainable": true,
          "dtype": "float32",
          "units": 64,
          "activation": "relu",
          "use_bias": true,
          "kernel_initializer": {
            "class_name": "GlorotUniform",
            "config": {
              "seed": null
            }
          },
          "bias_initializer": {
            "class_name": "Zeros",
            "config": {}
          },
          "kernel_regularizer": null,
          "bias_regularizer": null,
          "activity_regularizer": null,
          "kernel_constraint": null,
          "bias_constraint": null
        },
        "weights": [
          [
            … "bias": [
          … "class_name": "Dense",
        "config": {
          "name": "latent",
          "trainable": true,
          "dtype": "float32",
          "units": 6,
          "activation": "sigmoid",
          "use_bias": true,
          "kernel_initializer": {
            "class_name": "GlorotUniform",
            "config": {
              "seed": null
            }
          },
          "bias_initializer": {
            "class_name": "Zeros",
            "config": {}
          },
          "kernel_regularizer": null,
          "bias_regularizer": null,
          "activity_regularizer": null,
          "kernel_constraint": null,
          "bias_constraint": null
        },
        "weights": [
          [
            … "bias": [
          -0.019395042210817337,
          -0.04729849100112915,
          0.6462820172309875,
          -0.06620035320520401,
          -0.181797057390213,
          0.02672187238931656
        ]
      },
      {
        "class_name": "Dense",
        "config": {
          "name": "decoder",
          "trainable": true,
          "dtype": "float32",
          "units": 64,
          "activation": "relu",
          "use_bias": true,
          "kernel_initializer": {
            "class_name": "GlorotUniform",
            "config": {
              "seed": null
            }
          },
          "bias_initializer": {
            "class_name": "Zeros",
            "config": {}
          },
          "kernel_regularizer": null,
          "bias_regularizer": null,
          "activity_regularizer": null,
          "kernel_constraint": null,
          "bias_constraint": null
        },
        "weights": [
          [
            … "bias": [
          … "class_name": "Dense",
        "config": {
          "name": "dense_49",
          "trainable": true,
          "dtype": "float32",
          "units": 64,
          "activation": "relu",
          "use_bias": true,
          "kernel_initializer": {
            "class_name": "GlorotUniform",
            "config": {
              "seed": null
            }
          },
          "bias_initializer": {
            "class_name": "Zeros",
            "config": {}
          },
          "kernel_regularizer": null,
          "bias_regularizer": null,
          "activity_regularizer": null,
          "kernel_constraint": null,
          "bias_constraint": null
        },
        "weights": [
          [
            … "bias": [
          … "class_name": "Dense",
        "config": {
          "name": "dense_50",
          "trainable": true,
          "dtype": "float32",
          "units": 32,
          "activation": "sigmoid",
          "use_bias": true,
          "kernel_initializer": {
            "class_name": "GlorotUniform",
            "config": {
              "seed": null
            }
          },
          "bias_initializer": {
            "class_name": "Zeros",
            "config": {}
          },
          "kernel_regularizer": null,
          "bias_regularizer": null,
          "activity_regularizer": null,
          "kernel_constraint": null,
          "bias_constraint": null
        },
        "weights": [
          [
            … "bias": [
          … "keras_version": "2.12.0",
  "backend": "tensorflow",
  "width": 8,
  "height": 4
}